…
************************************************ Model: ScrabbleGAN ***********************************************
*************************************************** Loading Data **************************************************
************************************************ Model: ScrabbleGAN ***********************************************
*************************************************** Loading Data **************************************************
************************************************ Model: ScrabbleGAN ***********************************************
ScrabbleGAN(
  (R): Recognizer(
    (convs): Sequential(
      (0): Sequential(
        (0): Conv2d(1, 64, kernel_size=(3, 3), stride=(1, 1), padding=(1, 1))
        (1): ReLU(inplace=True)
        (2): MaxPool2d(kernel_size=2, stride=2, padding=0, dilation=1, ceil_mode=False)
      )
      (1): Sequential(
        (0): Conv2d(64, 128, kernel_size=(3, 3), stride=(1, 1), padding=(1, 1))
        (1): ReLU(inplace=True)
        (2): MaxPool2d(kernel_size=2, stride=2, padding=0, dilation=1, ceil_mode=False)
      )
      (2): Sequential(
        (0): Conv2d(128, 256, kernel_size=(3, 3), stride=(1, 1), padding=(1, 1))
        (1): BatchNorm2d(256, eps=1e-05, momentum=0.1, affine=True, track_running_stats=True)
        (2): ReLU(inplace=True)
      )
      (3): Sequential(
        (0): Conv2d(256, 256, kernel_size=(3, 3), stride=(1, 1), padding=(1, 1))
        (1): ReLU(inplace=True)
        (2): MaxPool2d(kernel_size=(2, 2), stride=(2, 1), padding=(0, 1), dilation=1, ceil_mode=False)
      )
      (4): Sequential(
        (0): Conv2d(256, 512, kernel_size=(3, 3), stride=(1, 1), padding=(1, 1))
        (1): BatchNorm2d(512, eps=1e-05, momentum=0.1, affine=True, track_running_stats=True)
        (2): ReLU(inplace=True)
      )
      (5): Sequential(
        (0): Conv2d(512, 512, kernel_size=(3, 3), stride=(1, 1), padding=(1, 1))
        (1): ReLU(inplace=True)
        (2): MaxPool2d(kernel_size=(2, 2), stride=(2, 1), padding=(0, 1), dilation=1, ceil_mode=False)
      )
      (6): Sequential(
        (0): Conv2d(512, 512, kernel_size=(2, 2), stride=(1, 1))
        (1): BatchNorm2d(512, eps=1e-05, momentum=0.1, affine=True, track_running_stats=True)
        (2): ReLU(inplace=True)
      )
    )
    (output): Linear(in_features=512, out_features=93, bias=True)
    (prob): LogSoftmax(dim=2)
  )
  (G): Generator(
    (activation): ReLU()
    (shared): identity()
    (linear): SNLinear(in_features=2976, out_features=8192, bias=True)
    (blocks): ModuleList(
      (0): ModuleList(
        (0): GBlock(
          (activation): ReLU()
          (conv1): SNConv2d(512, 256, kernel_size=(3, 3), stride=(1, 1), padding=(1, 1))
…
